submissions/starting_kit/weights.pth (torch, 180097 bytes, 5 tensors)

layers.0.weight f4 [120, 284]
0	0xbd83e8c8	-0.06440884
1	0xbd1aeb2d	-0.037821937
2	0xbd5efc36	-0.054439746
3	0xbd8977da	-0.06712313
4	0x3c747b77	0.014922014
5	0xbd729f5a	-0.059234
6	0xbd41291d	-0.04715835
7	0x3d646eef	0.055769857
8	0xbd13219b	-0.03592072
9	0x3cf0f495	0.0294135
10	0x3c354ace	0.011065198
11	0xbbe165d3	-0.0068785935
12	0x3c8e765e	0.017390426
13	0x3c2263a3	0.009911451
14	0xbc9d5c61	-0.019209089
15	0xbab0b441	-0.0013481454
16	0x3c87c11a	0.01657157
17	0xbda95b6d	-0.08269391
18	0x3d2bf36a	0.041980185
19	0xbd9c4eaa	-0.076321915
20	0x3d047a31	0.032343093
21	0x3cb2a428	0.021806791
22	0xbaea2980	-0.0017865151
23	0xbcf06a12	-0.029347453
24	0xbd6f8cbe	-0.05848383
25	0xba1ef52d	-0.0006063756
26	0x3d02eac2	0.031962164
27	0xbcb3603c	-0.021896474
28	0xbc9e7ee5	-0.019347617
29	0x3ce806a7	0.028323485
30	0x3bd95c92	0.0066333497
31	0x3cd41256	0.02588765
32	0xbb537958	-0.0032268371
33	0xbc1c6727	-0.009546078
34	0x3c3d0158	0.011535965
35	0x3ca0e1e7	0.019638969
36	0xbd872317	-0.0659849
37	0xbcc0e462	-0.023546401
38	0x3d570ec6	0.052504323
39	0xbd713f1e	-0.058898084
40	0xbd800672	-0.06251229
41	0xbd6104a9	-0.054936085
42	0xbd1d4d47	-0.038403776
43	0xbd2b18b0	-0.04177159
44	0xbdbe8f9d	-0.09304736
45	0x3c7c6413	0.015404719
46	0x3b0adef1	0.0021190012
47	0xbd9575dd	-0.07297871
48	0x3c22602b	0.009910624
49	0xbd9571ec	-0.072971195
50	0x3c722033	0.014778185
51	0xbcc5b2a6	-0.024133038
52	0xbcc29379	-0.023751961
53	0x3b24ea22	0.0025163968
54	0xbcfa1ef7	-0.030532343
55	0xbd51d2a1	-0.051226262
56	0xbd8eba09	-0.06969077
57	0xbd83eabe	-0.06441258
58	0x3d719074	0.05897565
59	0xbd6152f3	-0.055010747
60	0xbced3c3b	-0.028959384
61	0xbd2d3511	-0.042286936
62	0xb87791c3	-5.902514e-05
63	0xbbee110c	-0.0072652157
64	0xbd204897	-0.039131727
65	0xbd142082	-0.036163814
66	0xbcf8b96c	-0.030361854
67	0xbaf90067	-0.0018997312
68	0xbd988145	-0.07446531
69	0xbd73fcd5	-0.05956729
70	0xbd0458df	-0.032311317
71	0x3d1e0f74	0.038588956
72	0xbd2edd4d	-0.042691518
73	0x3ba8a136	0.005146171
74	0x3c19d41d	0.009388951
75	0xbceeb6c4	-0.029139884
76	0xba17ae33	-0.00057861506
77	0xbd47c621	-0.048772935
78	0xbbdda010	-0.0067634657
79	0xbdbc3db5	-0.09191457
80	0xbd62859e	-0.05530321
81	0xbd7fcea0	-0.062452912
82	0xbcbf33e9	-0.023340182
83	0xbd743c01	-0.059627537
84	0xbcd0816c	-0.025452338
85	0xbcd726e8	-0.02626367
86	0x3a05471e	0.00050841447
87	0xbda38efa	-0.07986255
88	0xbca57fa0	-0.020202458
89	0xbd8093de	-0.062782034
90	0x3ace9326	0.0015760406
91	0xbdac43f9	-0.08411402
92	0xbd2dcea0	-0.04243338
93	0xbc91ee20	-0.017813742
94	0xbdb50545	-0.08838896
95	0xbdab7eed	-0.083738185
96	0x3cb5b143	0.022179252
97	0xbd10ddad	-0.035367656
98	0xbd85ff3f	-0.06542825
99	0xbda7f6dc	-0.082013816
100	0xbd536f59	-0.05161986
101	0xbd97dc50	-0.07415068
102	0xbbeb0482	-0.007172168
103	0x3c703778	0.014661662
104	0xbdbf58db	-0.0934312
105	0xbdac0101	-0.08398629
106	0x3d0fe685	0.03513195
107	0xbd286bd0	-0.041118443
108	0xbda1ba45	-0.07896856
109	0xbd298a0b	-0.041391414
110	0xbc1e784b	-0.009672235
111	0xbd0b2ae3	-0.033976447
112	0xbd0b9e0d	-0.034086276
113	0xbdb410ca	-0.08792265
114	0xbd8a305b	-0.06747504
115	0xbda340de	-0.07971357
116	0x3c1ba57f	0.009499907
117	0xbd5f5dfc	-0.05453299
118	0xbc610888	-0.013734944
119	0x3c552675	0.013009657
120	0xbd3c00cf	-0.04589921
121	0xbd6e83de	-0.058231227
122	0xbd5a5ac1	-0.053309206
123	0xbcebdbb4	-0.028791286
124	0x3cda2ed2	0.026633654
125	0xbdc896db	-0.097943984
126	0xbd42785b	-0.04747806
127	0xbda4f484	-0.0805445
128	0xbcde03f0	-0.027101487
129	0x3c37531a	0.011189247
130	0xbbed0a3c	-0.007233886
131	0x3c724c5f	0.014788716
132	0xbbbc09f6	-0.005738492
133	0xbdb1f254	-0.086887985
134	0xbd05da7d	-0.03267907
135	0xbbd4019d	-0.006469919
136	0xbd86b09c	-0.06576654
137	0xbcecc16d	-0.028900826
138	0xbd9e2175	-0.07721225
139	0xbd076864	-0.03305854
140	0xbc7bafaf	-0.01536171
141	0xbd41e403	-0.04733659
142	0xbb4613d3	-0.0030224218
143	0xba3fe33e	-0.00073199335
144	0xbbc1a23a	-0.0059092315
145	0x3c41cb6c	0.011828285
146	0xbc462b43	-0.012095275
147	0xbd113fcf	-0.035461243
148	0xbc0afc6a	-0.008483032
149	0x3d110f9d	0.03541528
150	0x3d91bbd9	0.07115907
151	0xbd1babe7	-0.038005736
152	0x3d202137	0.039094176
153	0x3c27dd01	0.0102455625
154	0xbcf6e7ab	-0.030139765
155	0x3d7d619f	0.061860677
156	0xbcc3700f	-0.023857145
157	0xbc547c83	-0.012969139
158	0x3c9c447d	0.019075627
159	0x3c7e78d0	0.015531734
160	0x3d943289	0.07236201
161	0x3d5a3c88	0.053280383
162	0x3d5bd25c	0.05366741
163	0xbd0cd589	-0.03438333
164	0x3d645e4a	0.055753984
165	0x3d572719	0.05252752
166	0x3ce36b85	0.02776123
167	0x3d8610c5	0.06546167
168	0x3d647e78	0.055784672
169	0x3ce41a52	0.027844582
170	0x3b9ae29f	0.0047267224
171	0x3db8f249	0.09030587
172	0x3ca824f9	0.020525442
173	0xbc7e18ee	-0.015508873
174	0xbc9ad8ca	-0.018902201
175	0x3ca54ee2	0.020179216
176	0x3d0fec3c	0.0351374
177	0x3c0cf546	0.0086034
178	0x3c78e54e	0.015191389
179	0xbbbf9541	-0.00584665
180	0x3d76062b	0.060064476
181	0x3da2e08a	0.07952984
182	0x3d67ecb1	0.05662221
183	0xbb1875b4	-0.0023263516
184	0x3bcc2300	0.0062297583
185	0x3cb34095	0.021881381
186	0x3d5dbe23	0.054136407
187	0xbcd020ec	-0.025406323
188	0x3d7c6ab0	0.061625183
189	0xbbf0c297	-0.0073474157
190	0xbc5d56f3	-0.0135095
191	0x3d0967d9	0.033546302
192	0x3d87ceb8	0.06631225
193	0x3b4595b2	0.003014904
194	0x3c9f6c6f	0.019460885
195	0xbcc41180	-0.023934126
196	0x3d3e077d	0.04639386
197	0x3b87d953	0.00414578
198	0xbd1a8036	-0.037719928
199	0xbcc6ac94	-0.024252214
200	0x3d5960f4	0.053070977
201	0x3c930687	0.017947448
202	0x3c551c99	0.0130073065
203	0xbc4223a4	-0.011849318
204	0x3d3e448c	0.04645209
205	0x3d51f9c8	0.0512636
206	0xbd155bc4	-0.036464468
207	0xbb786864	-0.0037904019
208	0x3d227b7b	0.03966854
209	0xbcd2f0c4	-0.025749572
210	0x3d15b8a4	0.03655304
211	0xbd0aeaf2	-0.033915468
212	0x3b4233fa	0.0029633031
213	0xbb6ec94c	-0.00364359
214	0x3d480697	0.04883441
215	0x3d2c9bad	0.04214065
216	0x3d45f772	0.048331685
217	0x3c945d23	0.018110817
218	0x3d9d9421	0.07694269
219	0x3d9171fa	0.071018174
220	0x3d42d6f1	0.047568265
221	0x3c967c23	0.01836974
222	0x3d4aaa94	0.049479082
223	0x3da70cb1	0.081567176
224	0x3d726fe3	0.059188735
225	0x3b827164	0.0039808024
226	0x3d376fe1	0.04478443
227	0x3db4ad4e	0.08822118
228	0x3d88ba98	0.06676215
229	0x3c7b741b	0.015347506
230	0xbc991428	-0.018686369
231	0x3d031ff1	0.032012884
232	0x3b904d96	0.00440378
233	0x3d205a1f	0.039148446
234	0x3d6577d1	0.05602247
235	0x3d81805c	0.06323311
236	0x3c9d7091	0.019218715
237	0xbd014e30	-0.031568706
238	0xbd35ff25	-0.044432778
239	0x3d881134	0.06643906
240	0xbb302ed9	-0.0026883392
241	0x3d729c13	0.059230875
242	0x3b490a6e	0.0030676383
243	0xbd0b1ecb	-0.033964913
244	0x3d9be6f6	0.07612412
245	0x3c3b7362	0.011441084
246	0x3d5e12d8	0.05421719
247	0xbc9cb1b1	-0.019127699
248	0x3da3e2b3	0.08002224
249	0xbb65d3bd	-0.0035068833
250	0x3d1f04c2	0.038822897
251	0x3c0eeeb1	0.008723901
252	0x3c92a622	0.017901484
253	0x3be4b4f6	0.00697958
254	0x3cdf3328	0.027246073
255	0x3d78660d	0.0606442

layers.0.bias f4 [120]
0	0x3db4171e	0.08793472
1	0x3cc23122	0.023705069
2	0x3d9bde24	0.07610729
3	0x3dfe4ac6	0.12416606
4	0x3da09c11	0.07842267
5	0x3d3f7b0c	0.046748206
6	0x3db93f1b	0.090452395
7	0x3d598b8c	0.053111598
8	0x3d142595	0.036168654
9	0x3d185768	0.037192732
10	0x3cd5edfd	0.026114458
11	0x3dcf5d4b	0.10125216
12	0x3db91a4c	0.09038219
13	0x3ce891da	0.02838986
14	0x3cf5d394	0.030008115
15	0x3d7257f8	0.059165925
16	0x3dc86901	0.09785653
17	0x3df2a9bf	0.11848783
18	0x3d3e5239	0.046465132
19	0x3db1d7ad	0.08683715
20	0x3d99f1eb	0.07516845
21	0x3cad868b	0.02118232
22	0x3dd970a3	0.10617187
23	0x3d093eae	0.03350704
24	0x3dc08d01	0.09401894
25	0x3dedcfbc	0.11611888
26	0x3de622a4	0.11237076
27	0x3de70232	0.112797156
28	0x3d6c782c	0.057731792
29	0x3dde19de	0.108447775
30	0x3e07953f	0.13240527
31	0x3df8b5ce	0.121440515
32	0x3dc4646c	0.095894665
33	0x3de6c62f	0.11268269
34	0x3d10890d	0.03528695
35	0x3d80d4f4	0.062906176
36	0xbb771781	-0.0037703218
37	0x3dbbeffe	0.09176634
38	0x3d8444b8	0.064584196
39	0x3df53f7c	0.11974999
40	0x3dd0a700	0.10188103
41	0x3dc53eb6	0.09631102
42	0x3db90010	0.09033215
43	0x3db02f47	0.086027674
44	0x3d99f6b4	0.07517758
45	0x3d103f96	0.03521689
46	0x3e0cdc1d	0.13755842
47	0x3d728224	0.059206143
48	0x3d2d036d	0.042239595
49	0x3de91943	0.113817714
50	0x3d67d4d3	0.05659945
51	0x3d88985d	0.06669686
52	0x3cdf616a	0.02726813
53	0x3d84d36a	0.064856365
54	0x3d2a4dc2	0.041578062
55	0x3d17fd8d	0.03710704
56	0x3debfd53	0.11522927
57	0x3db61e7d	0.08892534
58	0x3db2edb4	0.087367445
59	0x3dbb906d	0.091584064
60	0x3db7477f	0.08949184
61	0x3d569751	0.0523904
62	0x3e01a77b	0.12661545
63	0x3cd3cd74	0.025854804
64	0x3d3b48b1	0.04572362
65	0x3de5cacb	0.1122032
66	0x3cf65298	0.03006868
67	0x3e062b23	0.13102393
68	0x3d4eae8f	0.05045944
69	0x3dfa32da	0.122167304
70	0x3da91ebd	0.08257816
71	0x3da31ace	0.07964097
72	0x3d86b4fc	0.06577489
73	0x3d8d2b1e	0.068929896
74	0x3e0c8d53	0.13725786
75	0x3dd94039	0.106079526
76	0x3d05ef39	0.032698844
77	0x3d66968f	0.056295928
78	0x3dadd174	0.08487216
79	0x3e059262	0.13044122
80	0x3e0b3781	0.13595392
81	0x3da67cff	0.0812931
82	0x3de0219d	0.10943911
83	0x3e066c85	0.13127334
84	0x3dfd1b4f	0.12358724
85	0x3e135870	0.14389205
86	0x3e112082	0.14172557
87	0x3d696754	0.056983307
88	0x3d07d7d8	0.03316483
89	0x3d68b650	0.05681449
90	0x3c71a95d	0.014749852
91	0x3c064584	0.008195285
92	0x3db16ddc	0.08663532
93	0x3d38568c	0.045004413
94	0x3d33ae66	0.04386749
95	0x3cf2e685	0.029650936
96	0x3d493c57	0.04912981
97	0x3d3cd295	0.046099264
98	0x3d12123a	0.035661913
99	0x3d186ac1	0.037211183
100	0x3d7b166f	0.06130069
101	0x3d995095	0.07486073
102	0x3daf0b06	0.085470244
103	0x3d27277b	0.040809136
104	0x3e10b971	0.1413324
105	0x3db1a805	0.08674625
106	0x3d548094	0.051880434
107	0x3d460ece	0.048353963
108	0x3e111f98	0.14172208
109	0x3debf35a	0.11521025
110	0x3d29b5b8	0.041433066
111	0x3db7b111	0.089693196
112	0x3d2f868b	0.04285292
113	0x3e00d8b4	0.12582666
114	0x3d063ced	0.032772947
115	0x3d94b5c1	0.07261229
116	0x3d981ee7	0.07427769
117	0x3d85b815	0.065292515
118	0x3da1b8eb	0.078965984
119	0x3da1efcd	0.079070665

layers.2.weight f4 [84, 120]
0	0xbd3f0696	-0.04663714
1	0x3e02c9c6	0.12772283
2	0xbc4e5bd5	-0.012595137
3	0x3d83c9e5	0.06434993
4	0x3dd38262	0.10327603
5	0x3d99384e	0.074814424
6	0x3dce0046	0.10058646
7	0x3dae9b48	0.08525711
8	0x3d6b5851	0.057457272
9	0x3df49399	0.119422145
10	0x3b9dcc45	0.0048156106
11	0x3dbc3d2f	0.09191357
12	0x3dd5e6d3	0.10444417
13	0x3caab915	0.020840207
14	0x3dd3c227	0.10339766
15	0xbc52e65e	-0.012872307
16	0x3e11e46e	0.14247295
17	0x3d906242	0.07049991
18	0x3cc36d4d	0.02385583
19	0x3de5046d	0.11182485
20	0xbca9be32	-0.020720575
21	0x3c8b8b30	0.017034143
22	0x3ddcedad	0.107875206
23	0x3cfc92d1	0.030831726
24	0x3d893035	0.06698648
25	0x3d3d772b	0.046256226
26	0x3de5d5dc	0.11222431
27	0x3df3df7c	0.11907861
28	0x3d423ef5	0.04742332
29	0x3c43cb3d	0.011950311
30	0x3d764abb	0.060129862
31	0xbcc6decd	-0.024276162
32	0x3db551df	0.08853506
33	0x3d951466	0.07279281
34	0xbd4408dc	-0.04786001
35	0x3d708e4e	0.058729462
36	0x3b52461b	0.0032085243
37	0x3dea75ef	0.11448275
38	0x3989a184	0.00026251015
39	0x3da8035e	0.08203767
40	0x3da156cb	0.078778826
41	0xbc289d8e	-0.01029147
42	0x3d2e5950	0.042565644
43	0xbc5382af	-0.012909575
44	0x3de02907	0.10945325
45	0x3cd201cd	0.025635624
46	0x3db306e0	0.08741546
47	0x3d921b1d	0.07134078
48	0xbd02c85b	-0.031929355
49	0x3e1b1ec8	0.15148461
50	0xbcbda17e	-0.023148295
51	0x3d1fa205	0.038972873
52	0xbd13e198	-0.036103815
53	0xbd107e9a	-0.035276987
54	0x3d8c22f8	0.06842607
55	0xbba6f5ed	-0.0050952346
56	0x3da2af3d	0.0794358
57	0x3c750fb0	0.0149573535
58	0x3dbbc60c	0.09168634
59	0x3dff34e8	0.12461263
60	0xbc1c653d	-0.009545621
61	0x3d82de4e	0.063900575
62	0x3df18549	0.11793
63	0x3d169938	0.036767215
64	0x3d4569a7	0.04819646
65	0x3dab823c	0.083744496
66	0x3dbc6d70	0.09200561
67	0x3c0cceec	0.008594256
68	0xbca4ae07	-0.020102514
69	0x3d19cf0d	0.037550975
70	0xbcc12a81	-0.023579838
71	0x3c84c8aa	0.016208965
72	0x3d9ec7f8	0.07752985
73	0x3d9d071a	0.0766737
74	0xbd3b08c8	-0.04566267
75	0x3b0eb9a6	0.0021778136
76	0x3c2f4268	0.010696985
77	0x3d8e08ed	0.06935296
78	0x3d91b8f7	0.07115357
79	0xbcaba488	-0.020952478
80	0xbcad5859	-0.021160292
81	0xbcd070f6	-0.025444489
82	0x3d9a5bbf	0.075370304
83	0xbd1702c3	-0.03686787
84	0x3da5d30e	0.08096896
85	0xbcc419c6	-0.023938071
86	0x3df06909	0.11738784
87	0x3d1067ff	0.03525543
88	0x3da995eb	0.08280548
89	0x3d8a667c	0.067578286
90	0x3df6792b	0.1203483
91	0xbcf926e0	-0.030414045
92	0xbcd2add7	-0.025717659
93	0xbd1c4d1a	-0.038159467
94	0xbd117068	-0.03550759
95	0x3c40afc7	0.011760659
96	0xbd4c337e	-0.049853794
97	0xbd0b6e98	-0.034041017
98	0xbc6b093c	-0.014345463
99	0x3d07fd2b	0.033200424
100	0x3d85cc22	0.06533076
101	0x3e0350d5	0.12823804
102	0x3e003548	0.12520325
103	0x3d0782a2	0.033083566
104	0x3ad52b07	0.0016263433
105	0xbc651622	-0.013982328
106	0xbcd62f91	-0.026145728
107	0x3b2abac2	0.0026051258
108	0x3d8f7c42	0.07006122
109	0x3dadcd0b	0.084863745
110	0x3d5322c9	0.051546846
111	0x3dd02b1e	0.10164474
112	0x3dc9275d	0.09821961
113	0x3d0384d2	0.03210909
114	0xbc3cf870	-0.0115338415
115	0x3d716b16	0.058940016
116	0xbc6f465d	-0.014604178
117	0x3daa9cc8	0.08330685
118	0x3d218184	0.039430156
119	0x3df2a068	0.11847001
120	0x3c5b2b9e	0.013377098
121	0x3c863924	0.016384669
122	0x3c654c79	0.013995283
123	0x3bf49cfd	0.0074650035
124	0xbb9e01cb	-0.004821991
125	0xbb4b0a64	-0.0030981535
126	0xbd8edc23	-0.069755815
127	0x3c9f4996	0.019444268
128	0x3c908a20	0.017643988
129	0xbd29e39a	-0.041476823
130	0xbd9707c9	-0.07374532
131	0xbd03832f	-0.03210753
132	0x3d3391f8	0.04384038
133	0xbdbdc6d3	-0.09266438
134	0xbcbedb56	-0.023297947
135	0x3d8bea2b	0.06831773
136	0x3d50739f	0.050891515
137	0x3cace7a2	0.021106545
138	0xbd2dded7	-0.042448845
139	0xbd071929	-0.03298298
140	0xbc45c5f6	-0.012071123
141	0x3d874c96	0.066064045
142	0xbd4e8926	-0.050423764
143	0x3d162fc2	0.03666664
144	0x3c20109f	0.009769588
145	0x3d52707c	0.051376805
146	0xbc548a99	-0.012972497
147	0xbd1e87af	-0.038703617
148	0x3bcb3d9b	0.0062024123
149	0x3d2bd079	0.041946862
150	0x3cf9f2cc	0.030511282
151	0xbd3ba82e	-0.045814686
152	0xbd3dc405	-0.046329517
153	0xbdc0e9ff	-0.09419631
154	0xbd90c11e	-0.07068084
155	0xbd3af750	-0.04564601
156	0xbd58ea74	-0.052957967
157	0x3d9dce30	0.07705343
158	0xbd260ede	-0.040541522
159	0xbd7c20f6	-0.06155487
160	0x3d82973d	0.06376503
161	0xbd8edadf	-0.0697534
162	0x3cb57ffc	0.022155754
163	0x3d47f81d	0.048820604
164	0x3d92e5f1	0.07172764
165	0x3d142485	0.03616764
166	0x3d8f0b3b	0.06984564
167	0xbbdb0ec4	-0.00668511
168	0xbd4bac0e	-0.04972463
169	0xbd8f6ea7	-0.07003527
170	0x3c81c83f	0.015842555
171	0x3d8f0f44	0.069853336
172	0xbd00b6be	-0.031424277
173	0x3b667578	0.0035165232
174	0x3c7e16ac	0.015508335
175	0xbcf7de10	-0.030257255
176	0xbdcd32a2	-0.10019423
177	0xbdcffc7e	-0.10155581
178	0x3d41b974	0.047296003
179	0x3c69130d	0.0142257335
180	0x3d3b6235	0.045747954
181	0xbdd1a333	-0.10236206
182	0xbd2d02ea	-0.042239107
183	0xbdb67fec	-0.08911118
184	0x3d12b050	0.035812676
185	0xbd8486b4	-0.06471005
186	0xbccdd42b	-0.025125584
187	0xbd5edfdf	-0.05441272
188	0xbd9bd5ad	-0.07609115
189	0x3bd4c55f	0.006493255
190	0xbc8651ad	-0.016396368
191	0x3d37b2f7	0.04484841
192	0x3d1bb808	0.038017303
193	0xbd5ce2f5	-0.05392738
194	0xbda732e3	-0.08164003
195	0x3c1399f5	0.009008874
196	0x3d9dca8d	0.07704649
197	0xbd9e52e3	-0.07730653
198	0x3d45662a	0.048193134
199	0x3d957601	0.07297898
200	0xbbc29dc8	-0.005939219
201	0x3c4eaf71	0.012615071
202	0x3d666d4b	0.056256574
203	0xbdbb4e94	-0.09145847
204	0xbdc71396	-0.097205326
205	0xbd991a87	-0.07475763
206	0x3d662b4f	0.056193646
207	0xbdadbf73	-0.08483782
208	0x3d22f17c	0.03978108
209	0xbca4e212	-0.02012733
210	0x3d2b565b	0.041830402
211	0x3b157fb3	0.002281171
212	0xbcb00f09	-0.021491544
213	0xbd95ddcc	-0.07317695
214	0x3bd2cfc0	0.006433457
215	0xbbaa67c0	-0.0052003562
216	0xbd5790e2	-0.052628405
217	0x3d8544d6	0.0650727
218	0xbdcce5e2	-0.10004784
219	0x3d62eb23	0.055400025
220	0xbca34586	-0.019930612
221	0x3d4b3e19	0.049619768
222	0xbb89da9d	-0.004206969
223	0xbcf31e90	-0.02967766
224	0x3d328c13	0.043590616
225	0xbcd457a3	-0.025920695
226	0xbdc3f222	-0.095676675
227	0xbbca66a7	-0.006176788
228	0x3b2caa7c	0.0026346734
229	0xbd91e2f5	-0.07123367
230	0xbdb941eb	-0.09045776
231	0x3d731b74	0.059352353
232	0x3d1b4870	0.03791088
233	0xbdb727e9	-0.08943159
234	0x3d1c0887	0.03809407
235	0x3c05716b	0.008144717
236	0x3d714af0	0.058909357
237	0x3d88e81d	0.06684897
238	0x3b8ad64b	0.0042369715
239	0xbdd624c1	-0.10456229
240	0x3de80ef5	0.11330978
241	0x3cb7046e	0.02234098
242	0xbc181435	-0.0092821615
243	0x3d9580fd	0.07299993
244	0x3d47336e	0.04863303
245	0x3e05390e	0.13010046
246	0x3df3bcb7	0.11901229
247	0x3d22c85c	0.03974186
248	0xbd30ac89	-0.043133292
249	0x3d99eb93	0.07515635
250	0x3c246dd4	0.010035951
251	0x3d07d06b	0.033157747
252	0xbc74ab03	-0.0149333505
253	0x3c271a38	0.010199122
254	0xbd5d2bb9	-0.053996775
255	0x3da3a916	0.07991235

layers.2.bias f4 [84]
0	0x3e09ee3d	0.13469787
1	0xbc42b15d	-0.011883107
2	0x3e0cb894	0.13742286
3	0xbcc8eb5c	-0.02452629
4	0xbdd1bb89	-0.102408476
5	0x3c323f78	0.01087939
6	0x3d3a7046	0.04551723
7	0x3d05fc98	0.032711595
8	0x3cdb8008	0.026794448
9	0xbcea9326	-0.028634619
10	0x3d8f0293	0.06982913
11	0xbdaf3887	-0.085557036
12	0x3d2460c2	0.040131338
13	0x3e202c0d	0.15641804
14	0x3b910485	0.0044255876
15	0xbc364295	-0.011124273
16	0x3dd27e62	0.10278012
17	0x3e131675	0.14364035
18	0xbba531c2	-0.005041332
19	0x3bf000f8	0.0073243342
20	0x3c649969	0.013952591
21	0xbd84c555	-0.064829506
22	0xbd8519e8	-0.06499082
23	0xbcb8cb68	-0.02255793
24	0xbc0b808b	-0.008514534
25	0x3da1a734	0.078932196
26	0xbd669d23	-0.0563022
27	0x3c3289fd	0.010897157
28	0xbdc64dd8	-0.09682816
29	0x3cc58655	0.024111906
30	0x3d6d37ef	0.05791467
31	0xbdc6619d	-0.09686587
32	0x3c3ac8d4	0.01140042
33	0x3d2c5157	0.04206976
34	0x3cb677b7	0.022273881
35	0xbdc1e5eb	-0.094676815
36	0xbd919bd1	-0.07109798
37	0xbc289d30	-0.010291383
38	0xbd6da2c4	-0.058016554
39	0x3d82afa8	0.0638116
40	0x3dc278d3	0.09495702
41	0x3d5b0388	0.053470165
42	0x3d81f59a	0.06345673
43	0x3e1a8485	0.15089615
44	0xbd89a73f	-0.06721353
45	0x3de2df64	0.11077765
46	0x3ca80a15	0.02051262
47	0x3d7750b9	0.060379717
48	0xbc3aee38	-0.011409335
49	0x3d2e7a72	0.04259724
50	0x3e1d9603	0.15389256
51	0xbc2306ee	-0.009950383
52	0x3d9de7df	0.077102415
53	0x3dc6d39c	0.0970833
54	0xbd081ca8	-0.033230454
55	0x3e2b7005	0.16741951
56	0xbbc939ab	-0.0061409078
57	0xbd31234e	-0.04324656
58	0x3e333f81	0.17504694
59	0x3db39455	0.087685265
60	0x3d461f1c	0.048369512
61	0xbda992df	-0.082799666
62	0xbc9a78ea	-0.018856484
63	0xbb504e01	-0.0031784775
64	0xbd54e5c9	-0.051976953
65	0x3d79f11d	0.06102096
66	0xbdb5cc4d	-0.08876858
67	0x3d349033	0.04408283
68	0xba861b55	-0.0010231534
69	0x3df75754	0.120772034
70	0x3d6dd80a	0.05806736
71	0x3d86e554	0.065867096
72	0x3db8eccb	0.0902954
73	0x3d1ea174	0.038728192
74	0x3ce95a76	0.028485518
75	0x3e2946ea	0.16530958
76	0xbcac884c	-0.021061085
77	0x3d89cf98	0.067290485
78	0x3d3d60a7	0.046234753
79	0xbda53db3	-0.08068409
80	0x3c6c4c50	0.014422491
81	0x3d6b4e56	0.057447754
82	0x3a85411e	0.0010166501
83	0xbcf9bd9f	-0.030485926

layers.4.weight f4 [1, 84]
0	0x3dfa56f3	0.122236155
1	0xbd3b224f	-0.045687016
2	0x3df560ce	0.11981355
3	0xbd9f470c	-0.07777223
4	0xbd7e8d24	-0.06214632
5	0xbd92b3b7	-0.07163184
6	0x3d3315e0	0.043722034
7	0x3d56d756	0.052451454
8	0xbced5fd1	-0.028976353
9	0xbd2bc4d8	-0.04193577
10	0xbda7e96b	-0.08198818
11	0xbd591ca4	-0.05300583
12	0x3ccbd08b	0.024879714
13	0x3e083dca	0.1330482
14	0x3d4f489b	0.05060635
15	0xbccd9cfb	-0.025099268
16	0x3df749ac	0.12074599
17	0x3dae1648	0.085003436
18	0x3dd177a2	0.10227896
19	0x3dc9cfbb	0.098540746
20	0x3d8c1f0b	0.068418585
21	0xbdb89395	-0.09012524
22	0xbdbf5156	-0.093416855
23	0xbd340e92	-0.043959208
24	0x3e158779	0.1460246
25	0xbd3900ca	-0.045166768
26	0xbd8ee449	-0.06977136
27	0xbd418f16	-0.047255598
28	0xbd585dd2	-0.05282385
29	0x3d8f4a64	0.06996611
30	0xbdcbda82	-0.099537864
31	0xbdb21683	-0.086957
32	0x3de00296	0.10937993
33	0x3dcf8c5f	0.101341955
34	0x3d508221	0.05090535
35	0xbdb34c95	-0.08754841
36	0xbd46bd03	-0.0485201
37	0xbc75671e	-0.014978198
38	0xbda5788c	-0.08079633
39	0x3df0a3ac	0.11749968
40	0x3debb260	0.11508632
41	0xbd9810f4	-0.074251086
42	0xbd6afbc2	-0.057369
43	0x3db634f4	0.08896819
44	0xbcf0600a	-0.02934267
45	0x3d8edeff	0.06976127
46	0xbdc8b3a4	-0.09799889
47	0x3cc8283d	0.02443325
48	0x3dd48f26	0.10378866
49	0x3e0e50c5	0.13897999
50	0x3db04ea8	0.086087525
51	0x3da47bc6	0.080314204
52	0xbd9f38c8	-0.07774502
53	0x3d552de4	0.052045718
54	0xbda43225	-0.08017377
55	0x3d881a06	0.066455886
56	0xbdb9b580	-0.090678215
57	0xbc150f26	-0.00909785
58	0x3d4ac070	0.04949993
59	0x3e1489c9	0.14505686
60	0x3dd9c8bf	0.106339924
61	0xbdcd8bb0	-0.10036409
62	0xbd3ccffc	-0.046096787
63	0x3e05bd51	0.130605
64	0xbd809eae	-0.06280266
65	0x3df50e1b	0.11965581
66	0xbdc2cf5d	-0.09512208
67	0xbd60df88	-0.054900676
68	0xbdb0b211	-0.086277135
69	0x3d99cced	0.075097896
70	0x3de12402	0.10993196
71	0xbd85b99a	-0.06529541
72	0x3e096da5	0.13420732
73	0xbd64f413	-0.05589683
74	0xba55199c	-0.0008129121
75	0x3db6400f	0.08898937
76	0xbd35f77a	-0.044425465
77	0x3e08046c	0.13282937
78	0x3df99cd1	0.121881135
79	0xbdb87812	-0.090072766
80	0x3d7f831f	0.062380906
81	0xbda22cae	-0.07918678
82	0xbbf20f05	-0.0073870444
83	0xbcc499c9	-0.023999112
